…
Skipping registering GPU devices...
2022-01-07 23:16:21.304749: I tensorflow/core/platform/cpu_feature_guard.cc:151] This TensorFlow binary is optimized with oneAPI Deep Neural Network Library (oneDNN) to use the following CPU instructions in performance-critical operations:  AVX AVX2
To enable them in other operations, rebuild TensorFlow with the appropriate compiler flags.
Model: "sequential"
_________________________________________________________________
 Layer (type)                Output Shape              Param #
=================================================================
 flatten (Flatten)           (None, 196608)            0

 dense (Dense)               (None, 512)               100663808

 batch_normalization (BatchN  (None, 512)              2048
 ormalization)

 gaussian_noise (GaussianNoi  (None, 512)              0
 se)

 activation (Activation)     (None, 512)               0

 dense_1 (Dense)             (None, 1024)              525312

 batch_normalization_1 (Batc  (None, 1024)             4096
 hNormalization)

 gaussian_noise_1 (GaussianN  (None, 1024)             0
 oise)

 activation_1 (Activation)   (None, 1024)              0

 dense_2 (Dense)             (None, 87)                89175

=================================================================
Total params: 101,284,439
Trainable params: 101,281,367
Non-trainable params: 3,072
_________________________________________________________________
Epoch 1/300
28/28 [==============================] - 30s 1s/step - loss: 4.0150 - accuracy: 0.0940 - val_loss: 8.7277 - val_accuracy: 0.0248 - lr: 0.1000
Epoch 2/300
28/28 [==============================] - 30s 1s/step - loss: 3.0589 - accuracy: 0.2061 - val_loss: 6.6566 - val_accuracy: 0.0634 - lr: 0.1000
…
